…
used: /home/linhdn/Developer/unified-framework-for-trading/data/stock-data/vnm-data.csv
News data used: /home/linhdn/Developer/unified-framework-for-trading/data/stock-data/vnm-news.json
Eps data used: /home/linhdn/Developer/unified-framework-for-trading/data/stock-data/vnm-eps.csv
Skipping the prepare data process...
Input shape: 625
Deep Q Network:
Model: "sequential"
_________________________________________________________________
Layer (type)                 Output Shape              Param #   
=================================================================
flatten (Flatten)            (None, 62500)             0         
_________________________________________________________________
dense (Dense)                (None, 16)                1000016   
_________________________________________________________________
p_re_lu (PReLU)              (None, 16)                16        
_________________________________________________________________
dense_1 (Dense)              (None, 32)                544       
_________________________________________________________________
p_re_lu_1 (PReLU)            (None, 32)                32        
_________________________________________________________________
dense_2 (Dense)              (None, 64)                2112      
_________________________________________________________________
p_re_lu_2 (PReLU)            (None, 64)                64        
_________________________________________________________________
dense_3 (Dense)              (None, 32)                2080      
_________________________________________________________________
p_re_lu_3 (PReLU)            (None, 32)                32        
_________________________________________________________________
dense_4 (Dense)              (None, 3)                 99        
_________________________________________________________________
activation (Activation)      (None, 3)                 0         
=================================================================
Total params: 1,004,995
Trainable params: 1,004,995
Non-trainable params: 0
_________________________________________________________________
None
Training for 50000 steps ...
   500/50000: episode: 1, duration: 22.779s, episode steps: 500, steps per second:  22, episode reward: -2124.836, mean reward: -4.250 [-310.333, 247.273], mean action: 1.008 [0.000, 2.000],  loss: --, mse: --, mean_q: --, mean_eps: --
…
